model_car/model.pth (torch_old, 135024 bytes, 12 tensors)

classifiers.0.classifier.0.weight f4 [16, 512]
000000 a5 3d b1 bc 46 eb c5 3d 39 d5 02 3e eb e5 99 bd
       -0.02163584 0.096640155 0.1277665 -0.075145565
000010 40 a3 7e 3d 4d 06 0e bd 11 95 42 3d 1d b1 a1 3d
       0.062167406 -0.034673978 0.047505442 0.0789511
000020 60 b0 c3 bb df cb d2 bd 9c 95 60 3d c8 84 12 3d
       -0.0059719533 -0.102927916 0.05483018 0.03577116
000030 aa dc eb 3b c0 e9 0a be 56 b5 b9 bd 63 03 a3 bc
       0.007197936 -0.13565731 -0.0906779 -0.019899076
000040 4a 02 bb bd a3 f9 97 3d b9 99 70 3d a5 ad 01 3d
       -0.09131296 0.07420661 0.05874035 0.03165974
000050 a2 6a 0e be 6e 3b 35 bd 9a 8e 77 3d e5 fd 9d bd
       -0.13907865 -0.04424613 0.06043873 -0.07714442
000060 6d 59 08 3d 32 84 cf bc 79 32 0a 3d 46 eb 5a bd
       0.033288408 -0.02533159 0.03373954 -0.05344703
000070 3f dd cf bd b8 50 5b bc 1b b9 73 bd 44 e8 52 bc
       -0.10149621 -0.013385944 -0.059502702 -0.012872759
000080 86 04 d8 bd 1e 3f 9a bd c8 e1 50 3d f7 45 f3 3c
       -0.10547738 -0.0753157 0.05099657 0.029696448
000090 54 fe 11 be d3 39 c6 bd 2d 95 2d ba 81 f8 85 3d
       -0.14257175 -0.09678998 -0.0006621655 0.06541539
0000a0 f3 1e e8 bd c8 1e 26 bd 45 b0 31 bd 8d 92 e0 bd
       -0.11334028 -0.0405567 -0.043380994 -0.10965452
0000b0 05 e4 d3 bc 37 30 a5 3d 46 65 93 3c 95 ea a9 3b
       -0.025865564 0.08065837 0.017992627 0.005185435
0000c0 aa 42 d3 bd 49 f4 fe 3c 85 fe 0a be 62 26 1b bd
       -0.103154495 0.031122344 -0.13573654 -0.0378784
0000d0 1a eb d9 3c 05 41 08 3d 72 47 d2 3d 81 9a ff 3c
       0.026601363 0.033265132 0.10267533 0.031201603
0000e0 81 17 d0 bd 70 4e ef bc 96 d8 88 3c 5a 8e 5a 3d
       -0.10160733 -0.029212207 0.016704839 0.053358413
0000f0 36 1b fa 3b 47 4b d9 bd 74 32 e8 bd 7c b8 95 3c
       0.0076326383 -0.10610061 -0.11337748 0.018276446
000100 03 1a d2 bc 51 cd b1 ba 57 e4 c6 3c f5 2e c3 bc
       -0.025647169 -0.0013565217 0.024278803 -0.023826102
000110 26 00 5c bd 99 c1 44 bb b8 20 40 bd 41 6f 79 3d
       -0.05371108 -0.003002262 -0.046906203 0.060897116
000120 1b d7 0f 3d b9 92 92 3d db 3e 9c 3c 2a 2c bf bd
       0.03511725 0.071568914 0.01907294 -0.093345955
000130 4f 84 a1 3d da 03 fd bc a1 8f 9b 3d f9 cd 3a bd
       0.07886564 -0.030885626 0.075957544 -0.045606587
000140 7a 40 9d 3c 6f 44 00 3e 35 f1 ed bd 77 3d 06 be
       0.019195784 0.12526105 -0.11618272 -0.13109384
000150 5c 54 e7 3c ea bb d3 3d 3f 28 89 3d 8f 07 76 bd
       0.028238468 0.10338576 0.066971295 -0.060065802
000160 00 03 47 bc ac 27 bd bd b0 17 bb 3d 88 fc 0e bd
       -0.012146711 -0.092360824 0.091353774 -0.0349088
000170 b3 38 b4 bd ea 76 ae bd 83 85 a1 3d 57 b9 45 bd
       -0.08799877 -0.08518775 0.078867935 -0.048272457
000180 5f 22 45 3c 36 f1 0a 3e 3d e6 ac 3d 12 06 7a 3b
       0.0120321205 0.13568577 0.08442352 0.003815059
000190 92 9e 02 bd 83 58 05 3d 1a 9d 22 be 6f f4 9b bc
       -0.031889506 0.032555114 -0.15880242 -0.019037453
0001a0 da 77 bd bc 00 c2 37 3d a2 20 23 3d de 7f f3 bd
       -0.023128439 0.044862747 0.039826043 -0.11889623
0001b0 04 ef d8 3d 87 39 09 bd fe 26 c6 bd 38 6b d8 bd
       0.105924636 -0.033502128 -0.09675406 -0.10567325
0001c0 81 bb 16 be 05 ec 71 bd 12 11 e5 bd 06 15 5e 3d
       -0.14719965 -0.059062976 -0.111848965 0.05421927
0001d0 a3 5b a1 3d 43 69 18 3d 30 98 91 3b 8b 4c 8a bd
       0.078788064 0.03720976 0.004443191 -0.06752881
0001e0 ce 66 84 bd 8e b9 a3 bc e7 35 81 3c 4c 39 7d bc
       -0.06464921 -0.01998594 0.015772773 -0.015455555
0001f0 8d 76 c2 3b e5 a1 b6 3d c8 ab ea bd 6d 0f a2 bd
       0.0059345425 0.08917598 -0.11458546 -0.079130985
000200 ef 98 59 3d b7 79 ec bd 6a e6 ec bc 36 22 bb bc
       0.053124364 -0.11546653 -0.028918464 -0.022843461
000210 ba 2d eb bd 54 14 08 bd 1d 0b 5e bd 01 62 c5 bb
       -0.11483331 -0.03322251 -0.054209817 -0.006023646
000220 c7 7b c2 bd c0 58 72 3d ee 63 86 bd bf 4d 69 3d
       -0.09496265 0.05916667 -0.06562029 0.05695891
000230 c4 2d 7c bd 88 cf 75 3d 18 22 04 3d 12 08 33 3d
       -0.061567083 0.06001237 0.032259077 0.04370887
000240 d0 28 24 bc 1a f6 c8 bc 9c d1 02 3d d4 44 eb bc
       -0.010019496 -0.024531413 0.03193818 -0.028719343
000250 3e a7 f2 bb c3 76 64 bd 2a b3 f5 bb 50 be 0b ba
       -0.0074051907 -0.055777323 -0.0074981647 -0.0005330788
000260 3a 2f 06 bd 56 c7 bb 3d 91 81 cb bc 1c 77 69 bd
       -0.032759883 0.0916888 -0.024842056 -0.056998357
000270 1b 6e 40 3d 85 ec 9a 3d dd ae 8c bd 6e 36 8b bd
       0.046980005 0.07564644 -0.0686929 -0.06797491
000280 0d f5 bf bb 72 71 65 bd fb d9 a5 3d ee 13 01 3c
       -0.0058580698 -0.056016393 0.08098217 0.007878287
000290 50 cb 72 bc db ba e5 3c 3f c9 9d 3d 56 70 c7 3c
       -0.014818981 0.028043201 0.077044 0.024345558
0002a0 f6 2d b9 3c 05 2f a1 bb 2d e6 0c 3d 2a a4 52 3d
       0.022604924 -0.0049189352 0.0343992 0.05142609
0002b0 09 82 20 bb b5 6f 4b ba ff cd a6 3d 50 8b 7f bd
       -0.002449157 -0.0007760481 0.081447594 -0.062388718
0002c0 eb 74 e1 bc 17 11 90 bc 6f a2 9b 3c 68 8c 50 3d
       -0.027521571 -0.017586274 0.018998353 0.05091515
0002d0 a2 4e f2 bc 3f 5b da 3c 0c d0 3e 3d 59 57 c2 3b
       -0.02957851 0.026654838 0.046585128 0.005930823
0002e0 81 01 63 3c 57 9c 62 bd ae c2 ff 3d 84 3f 81 3d
       0.013855339 -0.05532488 0.12488304 0.06310943
0002f0 2c 17 ef bd c6 9b 97 3d b3 a7 be bd 5b c1 c3 3c
       -0.116743416 0.07402758 -0.0930933 0.02389591
000300 52 05 75 bb 9c be 88 3d 8f f8 c7 3d 1b 99 8e 3d
       -0.0037387204 0.06676981 0.09764206 0.06962796
000310 13 18 70 bd ac 23 b2 3c 61 60 6d 3d 9f f7 a5 3d
       -0.05861671 0.021745525 0.057953242 0.081038706
000320 31 42 6f bc bb ce a7 3d 33 d8 08 bd 53 30 8e 3d
       -0.014603184 0.081937276 -0.03340931 0.06942811
000330 7e ce 8c bd b1 48 98 bd fe 4e 37 3d 32 ac b2 3d
       -0.06875323 -0.0743574 0.044753067 0.0872425
000340 ee d7 28 3d 32 89 d7 bd 2a 3b a6 3d 68 e6 7a 3c
       0.04122155 -0.10524215 0.081167534 0.015313722
000350 50 e4 a2 bc 82 ff 2d bc eb cb 65 3d 63 66 1f 3d
       -0.019884259 -0.01062 0.056102674 0.038916003
000360 2f 07 ac 3d 4d b3 66 3c 84 82 a9 bd b8 7e 2a 3d
       0.08399808 0.014080835 -0.08276847 0.041624755
000370 05 9e 36 3d 95 2b f9 3c f7 78 8f 3d 03 7e 05 bc
       0.044584293 0.03041629 0.07005494 -0.008147719
000380 bd 8c 80 bd 77 3d b2 3d 71 3e 0d bb 55 1f d3 3d
       -0.06276844 0.0870313 -0.002155211 0.103087105
000390 10 79 8b bd 37 fb e5 bd 6e b3 fc bc 74 f0 44 bc
       -0.068102 -0.11229556 -0.030847277 -0.012020219
0003a0 df 90 f2 bc 77 13 9c 3d fb bf 0b 3d 6b 12 b8 3d
       -0.029610096 0.076209 0.034118634 0.08987888
0003b0 7f 31 a8 bd 85 42 6f bd f7 74 50 bd 56 f7 d3 bc
       -0.08212566 -0.058413047 -0.050892796 -0.025874775
0003c0 5e 17 4e bd f6 e9 a7 bd 0c c0 80 bd 45 84 14 bc
       -0.050315253 -0.081989214 -0.0628663 -0.009064739
0003d0 6d 21 49 bd ba d8 4f bd ce 5b ac 3c da 49 b5 bd
       -0.049104143 -0.050743796 0.02103987 -0.08851977
0003e0 39 8f 6c 3c cc 90 a7 bd 11 a9 ab 3c 21 72 aa 3c
       0.014438444 -0.08181915 0.02095464 0.020806374
0003f0 62 18 ba 3d c7 e7 8b 3c 1d ce 75 3d c9 20 fc bd
       0.09086682 0.017078293 0.060011018 -0.12310941

classifiers.0.classifier.0.bias f4 [16]
000000 62 e9 7e 3d c5 3c 19 3d 66 45 45 bc 8f ca 1b bc
       0.06223429 0.03741147 -0.012040472 -0.009508743
000010 bb 38 43 3c e3 05 8d 3d 2d ae 22 3d f7 d9 59 3d
       0.011915381 0.068858884 0.03971689 0.053186383
000020 b1 75 6d bc a7 bc 42 3d a4 44 d2 3d 0b a4 80 bc
       -0.014493392 0.047543194 0.102669984 -0.015703222
000030 f6 ec b9 3d 71 05 37 3c 68 31 63 bc 65 6e 4e 3d
       0.090784 0.011170731 -0.01386676 0.05039825

classifiers.0.classifier.2.weight f4 [1, 16]
000000 de 86 4b be 93 05 20 3e 07 f9 35 3e 95 fa b9 3e
       -0.19875666 0.15627126 0.17770778 0.3632399
000010 29 37 0c 3e e7 8b 95 be 6f 14 96 3e 29 08 ae be
       0.13692917 -0.292083 0.29312465 -0.339906
000020 3b 46 35 3e a3 0e a2 3e 02 d2 68 be 29 95 96 3e
       0.17702572 0.31651792 -0.22736362 0.29410675
000030 ca 2e 97 be 80 1e 8c be 53 7a 89 3e f8 19 c8 be
       -0.29527885 -0.2736702 0.26851138 -0.39082313

classifiers.1.classifier.0.weight f4 [16, 512]
000000 5e 61 c7 bc 1e 83 3f bd 2a e7 05 3b 34 89 32 3d
       -0.02433842 -0.046755902 0.0020431974 0.04358788
000010 63 f9 72 bd 56 a8 89 bc 7e ac 7c bc 8b 44 3c bb
       -0.059319865 -0.016803902 -0.015421985 -0.0028727378
000020 2f c4 22 bd 35 00 e4 3b 10 c8 05 ba 84 d4 e5 3c
       -0.039737877 0.0069580325 -0.0005103359 0.028055437
000030 28 a4 b0 3c b6 cc f9 3c b8 92 9f bd 98 c1 36 3b
       0.02156265 0.030493122 -0.07791656 0.0027886387
000040 f2 2c 5c 3c a5 1c 90 3d 40 71 4c bc b6 4a 0b 3d
       0.01343845 0.070367135 -0.012478173 0.034006797
000050 86 ee 90 3d 8d 24 94 3c 8a d3 8a bd 52 be 08 bc
       0.07076745 0.018083835 -0.06778629 -0.008346157
000060 aa e1 93 3d c6 2e 8f bd 81 06 42 bc da 5b 00 bd
       0.072207764 -0.06991343 -0.011842371 -0.031337596
000070 1b ac 5f 3d 84 b2 eb 3c 82 ce 33 3a 87 de 15 bc
       0.054607492 0.028771646 0.000685908 -0.009147293
000080 2c 8f 80 bc e4 16 5b 3b e2 f7 b6 39 32 7e 2b bd
       -0.01569327 0.0033430392 0.00034898432 -0.041868396
000090 a8 29 04 bc ea 15 99 3c 5c 99 3d bb 6e 94 2a bd
       -0.008066572 0.018687207 -0.002893052 -0.04164546
0000a0 55 31 72 3c 34 50 88 3c de b4 c9 3d 75 c8 cd 3c
       0.0147822695 0.016639806 0.09848951 0.02512
0000b0 d6 c5 e8 bb 70 d4 61 bd 5b cb 69 bd d8 06 0f bd
       -0.007103662 -0.055134237 -0.0570787 -0.034918636
0000c0 6c 2b 94 3d 9c 22 5c 3b de 12 ea 3c b7 f0 2d b9
       0.072348446 0.0033589965 0.02857345 -0.00016588239
0000d0 93 12 d4 bc 1c 2e 61 3c 15 a9 2d bc 98 55 31 3d
       -0.025887763 0.0137439035 -0.010599394 0.04329452
0000e0 da 84 bc ba c7 29 94 bc bc 68 2e bd 7a 04 2e 3d
       -0.0014382855 -0.018086327 -0.04258035 0.042484738
0000f0 b6 e4 53 3b b3 13 2c bd 28 be c5 3c 4c 31 c7 3c
       0.0032332367 -0.042010974 0.024138525 0.024315499
000100 9b b7 38 3d 94 09 a5 bb f4 62 8b ba fb 7f cb b8
       0.045096975 -0.005036542 -0.0010634349 -9.7036325e-05
000110 38 ea ed bc a7 07 18 bb 13 66 50 3d cb 78 85 3d
       -0.029042348 -0.002319792 0.050878596 0.0651718
000120 23 77 02 bb 32 1e 29 bd 34 14 b8 bc 69 37 54 bc
       -0.0019907437 -0.041288562 -0.022470571 -0.012952664
000130 f1 59 4e 3d 5a 28 23 3b 33 30 4c 3d 0e d4 8e bd
       0.050378744 0.0024895878 0.049850654 -0.0697404
000140 4a 8d 12 3d d8 7e 56 3b 09 7c a2 bd e7 32 7c 3d
       0.035779275 0.0032729413 -0.07933814 0.06157198
000150 97 1f 80 3c c9 ea 83 bd 13 03 3b 3c f4 65 0d bd
       0.015640063 -0.06441266 0.011414307 -0.03452106
000160 06 75 4c bd 88 0d 2c 3d 92 0e 0d 3d 9c db e8 bb
       -0.04991629 0.042005092 0.034437723 -0.0071062576
000170 17 f9 14 bd 5a e2 2e bd 7a a6 5a 3c e0 ac 20 bc
       -0.036370363 -0.042696334 0.013345355 -0.009806842
000180 9f 05 91 bb c6 d4 ae bc f3 47 c4 3c de 33 3c 3c
       -0.004425719 -0.021341693 0.02396009 0.0114869755
000190 bb 23 fd bc 58 cf c4 bc ef c2 2a 3d bb d4 c9 b9
       -0.030900827 -0.02402465 0.04168981 -0.00038496204
0001a0 87 65 9d bc 39 8d 5c bd 5f 75 47 3c bd f9 05 3d
       -0.019213451 -0.053845618 0.01217398 0.032708872
0001b0 df 9e b3 3c 38 57 96 3c 9b 1f 8a bc 19 38 20 bd
       0.021926342 0.018352136 -0.016860774 -0.039116
0001c0 bf 88 0b bb 89 e3 75 3d 89 40 92 bd 95 f4 a6 3b
       -0.0021291224 0.060031448 -0.07141215 0.0050950744
0001d0 29 f3 48 bc 5e 53 80 bd b7 57 fe bb 57 90 a9 3c
       -0.012265005 -0.06265901 -0.0077619213 0.02069871
0001e0 9b 91 0a bd f3 82 28 3c 56 c4 c2 3c 78 45 67 bd
       -0.033830266 0.010285127 0.02377526 -0.056462735
0001f0 17 75 c3 bc 12 de 73 3d fa 83 31 bc 32 44 91 bc
       -0.023859544 0.059537955 -0.010834688 -0.017732713
000200 0d 02 9f 3c ce 2a 66 3d 3b b5 a6 3d 2e 3e 0c 3d
       0.019410158 0.056193165 0.08140036 0.034238987
000210 3e e9 e9 bc e6 fb f1 bb f3 7f 58 bd 5a e6 d2 bc
       -0.028553601 -0.007384765 -0.052856397 -0.025744606
000220 9d ad 99 3c 08 c5 a2 bc ca 0c 26 bd 3b c4 79 bd
       0.018759543 -0.019869342 -0.04053954 -0.060978156
000230 3b aa 05 bd 0f d1 3f bc 31 c0 10 3c 69 38 52 3a
       -0.032633048 -0.011707558 0.0088348845 0.000801927
000240 91 ff df bc d1 77 83 3d 0d 1d a3 bd c2 a7 93 3d
       -0.027343543 0.064193375 -0.07964525 0.07209732
000250 9e 62 21 bd 13 3f 6a bd 66 6b d1 3c da d9 3f 3c
       -0.03940069 -0.05718906 0.025563907 0.011709655
000260 ae 18 82 bb b8 22 8e 3b 44 4e 99 3d 0f c6 a1 3b
       -0.003970227 0.004337635 0.07485631 0.0049369405
000270 1e 94 1b bc 6d 47 0d bc 40 f7 13 3d 9e ef 05 bd
       -0.009495763 -0.008622986 0.036124468 -0.03269922
000280 03 e3 02 3c d0 bb 55 3d 69 39 35 3d b7 ec 89 bd
       0.007988694 0.052181065 0.044244204 -0.06734603
000290 96 2a 0b 3d 20 b3 78 bc 50 4e 99 3d ca ba 43 bd
       0.03397616 -0.0151794255 0.0748564 -0.047785558
0002a0 d8 97 85 3c 3c 2d 11 3c fd f5 fa 3c b7 e9 b2 3c
       0.016307756 0.008860882 0.030634874 0.02183996
0002b0 c2 c1 58 3c 1c bd d6 3c 90 28 a8 3d 05 c7 40 bd
       0.013229789 0.026213221 0.08210862 -0.0470648
0002c0 42 06 4e 3c d7 94 b0 bb a8 40 31 3c 03 7f 01 bd
       0.012574734 -0.005388837 0.010818638 -0.03161527
0002d0 07 08 2b bb 8b 6f bb bc ea c0 3c 3c b9 72 f6 bc
       -0.0026097314 -0.022880336 0.011520604 -0.030084
0002e0 82 66 a8 bb 10 ba 8a 3c 13 a7 5f bd 3f 8c 84 3b
       -0.005139173 0.016934425 -0.054602694 0.004045039
0002f0 55 75 55 3d 82 7b 9d 3b 4d e1 3a bd c1 56 82 3d
       0.05211385 0.004805983 -0.04562502 0.06364203
000300 4f cb e3 bb ae 1c 9a bd 6e d6 09 3d c8 16 7d bd
       -0.0069517265 -0.075250015 0.03365176 -0.061789304
000310 56 47 aa 3c f2 15 0e bd 46 a0 9e bc e5 e7 c7 3c
       0.020785969 -0.034688897 -0.019363534 0.024402568
000320 8c 57 14 3c 13 36 95 3b c6 9b 28 3c 7a da 00 3d
       0.009054076 0.0045535653 0.0102910455 0.031458355
000330 a0 db 3d 3c 2e 22 71 bd cb e0 d5 bc a2 96 0b 3c
       0.011588007 -0.058870487 -0.026108166 0.0085198
000340 75 ec 29 bb ce b1 7f 3d 0c 63 13 3d 46 31 80 bd
       -0.0025928293 0.062425427 0.03598313 -0.06259398
000350 eb 6a 65 3c 69 cf 85 3d 2c 80 58 bc b7 22 1c bd
       0.014002542 0.06533701 -0.013214152 -0.038119044
000360 77 2f 98 3b 4c db 63 3d 12 9a 7e 3d 3d 18 8e 3d
       0.00464433 0.05562906 0.06215865 0.06938217
000370 4b 1e 51 bc 3f 4b ba bc e0 7a 18 3c ec 22 a6 bd
       -0.01276357 -0.022740958 0.009306639 -0.081121296
000380 95 31 1f bd 01 e1 2b bc c8 e6 a1 bd 27 73 a4 bb
       -0.038865644 -0.010490657 -0.07905346 -0.00501861
000390 52 91 b8 3c c6 29 1e 3c 42 b7 59 3d 12 83 32 3c
       0.022530232 0.009653514 0.053153284 0.010895507
0003a0 1a 45 d6 bc b8 01 1e 3d d9 9d 16 bd d0 41 1d 3d
       -0.026155997 0.038575858 -0.03677163 0.03839284
0003b0 58 3b f6 3c 5f 20 77 3c de 0d 18 3c 5a b1 90 bd
       0.030057594 0.015083401 0.00928065 -0.07065077
0003c0 f3 a5 6c 3d 97 0a 4a 3d e9 f0 bc 3c f3 04 fc bc
       0.05777545 0.049326506 0.023064094 -0.030764079
0003d0 2d 74 b9 3a 85 a3 ea bc 4b d0 e4 3c 1d c0 b1 3c
       0.0014149003 -0.028642425 0.027931353 0.021698052
0003e0 db bc 44 3d 23 1f 28 bd 93 80 3e bc 23 10 0a 3d
       0.04803167 -0.04104532 -0.011627334 0.033706795
0003f0 b2 90 bb ba f3 b8 39 3d 07 93 6d bc f9 28 e4 bb
       -0.001431009 0.045342397 -0.014500386 -0.006962892

classifiers.1.classifier.0.bias f4 [16]
000000 77 53 b3 3b 7c fc 72 3d 64 fd 8c 3d 01 0e 94 3d
       0.0054725963 0.05932282 0.06884268 0.072292335
000010 a0 69 77 3d 49 05 70 3d fe b4 9f 3c ac 35 f9 3c
       0.060403466 0.05859879 0.019495483 0.0304211
000020 81 ac 29 bd c4 1a 31 bd f5 82 1d 3d c4 05 01 3d
       -0.04142428 -0.043238416 0.03845497 0.03149964
000030 d1 6b 26 bd 0f 5d c9 3b 23 bb 0a bd a7 97 12 3a
       -0.040630165 0.0061451267 -0.033869874 0.0005592056

classifiers.1.classifier.2.weight f4 [1, 16]
000000 94 eb 9a 3e 94 38 a3 be 10 46 63 be 34 1b 2d be
       0.30257857 -0.31879103 -0.22194695 -0.16904908
000010 9c bd 75 be e7 9b a5 be 99 5d 9c 3e 67 5a 76 3e
       -0.23998111 -0.32345507 0.3054016 0.24057923
000020 d9 d9 4c 3e 2d c2 42 3e 9e e1 b0 bd 15 22 0d 3e
       0.20004977 0.19019385 -0.08636783 0.13782533
000030 cf 62 7e 3e 0b fd ec 3d 0c 8a 63 3e e1 b7 8f 3e
       0.2484238 0.115717016 0.2222063 0.28069976

classifiers.2.classifier.0.weight f4 [16, 512]
000000 09 af 61 bd cd d3 ca 3d 85 13 b1 bc c1 51 28 3d
       -0.055098567 0.09903679 -0.021615753 0.04109359
000010 42 cb ab bd fb 03 91 bd 97 8e 34 bd f2 dc 86 3c
       -0.08388378 -0.07080837 -0.044081297 0.016462777
000020 22 d6 1b bd ea ba 01 bb 3e 9d c7 3d c8 a7 08 bd
       -0.03804601 -0.0019795247 0.097467884 -0.033363134
000030 5d 31 bd 3d b6 46 67 bc aa e3 b2 bd 48 f3 60 bb
       0.09237931 -0.01411598 -0.0873483 -0.0034324694
000040 2e f2 6c 3d 27 75 e2 3c b3 90 ea 3d 07 2c 75 3d
       0.057848148 0.027643753 0.114533804 0.05985644
000050 77 2a 9d bb 31 fc 3f 3b fc 75 9a 3d 1f 0b 24 3b
       -0.004796322 0.0029294605 0.07542035 0.0025031043
000060 20 b3 e3 ba a6 36 81 3d 4e da 83 3d 5c fe c1 bb
       -0.0017372109 0.063092515 0.06438123 -0.0059202146
000070 ff 2b 96 bc 8b 5f a4 3d a3 02 9c bd 0d cc 8d bd
       -0.018331526 0.08026036 -0.076176904 -0.06923685
000080 09 64 31 bd b2 98 bf bd da 62 08 be 88 dc 3d bd
       -0.04330829 -0.09355296 -0.13318959 -0.046352893
000090 a4 c1 a0 3c a2 e5 93 bb e9 6d 01 3e ea d4 0f 3c
       0.019623585 -0.0045134583 0.12639584 0.00877879
0000a0 52 94 02 3d 51 96 c4 bc 4f 82 f3 3c 38 b8 cd 3d
       0.03187973 -0.023997458 0.029725222 0.100449026
0000b0 76 b1 85 bc a0 d3 c0 bd ce df 65 bd 4a f7 0b 3d
       -0.016319972 -0.09415364 -0.05612164 0.03417138
0000c0 75 42 12 3c c7 9c 31 3d c4 a1 12 3d 41 a3 79 bd
       0.008926977 0.043362405 0.035798803 -0.060946707
0000d0 62 bd a0 bd ba e3 a8 3d 36 f5 42 3d f3 0b a4 bd
       -0.07848622 0.082465604 0.047597133 -0.08010092
0000e0 52 b1 a9 3b 32 4d c3 3c 85 71 f6 3a 0f 5d 4a 3d
       0.005178609 0.02384052 0.0018802142 0.049405154
0000f0 f6 eb f0 bc cc 80 f3 bd b7 02 28 3d c9 ad b9 3b
       -0.02940939 -0.118898004 0.041018214 0.0056664688
000100 69 b0 97 3d 82 e3 0a 3d 7e 26 1a 3e 11 e1 50 bd
       0.074066944 0.033908375 0.15053746 -0.05099589
000110 40 bb a5 bd 25 41 ef 3b 72 cb 0f bb 77 ed 1f 3d
       -0.08092356 0.007301467 -0.0021941331 0.039044823
000120 c4 56 dc bd c4 54 2e bc d7 c0 c3 3d 54 2c 15 be
       -0.10758737 -0.010640327 0.09558266 -0.14567691
000130 15 d1 d1 3d 9c 25 d9 bb 64 23 65 bd fa 3f 2f 3d
       0.10244957 -0.006626798 -0.055941954 0.042785622
000140 85 56 f6 3d b1 64 89 3d b2 ba 10 bd 8f e7 ab bc
       0.12028221 0.067086585 -0.035334297 -0.02098444
000150 e0 9a de bc a2 96 cf bc fc 42 ab 3d d2 99 07 be
       -0.02717346 -0.025340382 0.08362386 -0.13242272
000160 0c cf 7f bc 38 16 6d bd 8b 51 7b bd 06 16 a8 3d
       -0.015613329 -0.057882518 -0.061357062 0.08207326
000170 b2 40 12 be 07 00 a9 3d ed c5 cf 3d 1a a3 71 bd
       -0.14282492 0.08251958 0.10145173 -0.058993436
000180 de e6 96 3d a0 07 79 bd d4 c5 8b bd 92 b6 db 3d
       0.07368253 -0.060798287 -0.06824842 0.10728182
000190 7a 11 49 bd d6 88 ab 3d c2 d0 11 3e 9a 29 78 bd
       -0.049088933 0.08375709 0.14239791 -0.06058655
0001a0 55 9e d8 3b 2b fc fd bd 1a f8 94 bd 00 53 13 be
       0.0066106715 -0.12401613 -0.07273884 -0.1438713
0001b0 94 ee 84 3b 1d 22 fd 3d 6e c8 ce bd 84 c9 84 3d
       0.004056761 0.12360022 -0.10096823 0.064837486
0001c0 7a 94 03 bc a1 71 b9 bb f3 8b a1 3d 67 58 6f bd
       -0.008031005 -0.0056592976 0.07888021 -0.058433916
0001d0 cf 9f d0 3d c3 05 65 3c d6 42 21 3d e5 d3 41 3d
       0.10186731 0.0139784245 0.03937038 0.04732122
0001e0 35 4e 8e bd 71 84 27 3c 29 db b8 bd c0 ee cf bc
       -0.069485106 0.010224448 -0.090261765 -0.0253824
0001f0 75 79 a7 3d 38 38 cc 3c a0 76 39 bd 28 cd 83 3d
       0.08177463 0.024929151 -0.045279145 0.06435615
000200 71 23 10 3d 1b ce 83 bc f7 89 18 3d 71 cb ea bd
       0.03519005 -0.01608949 0.03724095 -0.114645846
000210 f0 13 de 3d dd ff 0b be 1e da b2 bd 7c b9 dc 3c
       0.108436465 -0.13671823 -0.08733009 0.026943915
000220 ea 11 46 bd 55 26 a8 3c 17 3c 08 be 39 0e d1 bd
       -0.048356928 0.02052609 -0.13304172 -0.10207791
000230 71 e9 01 3e af 79 28 bd 8f 6e 4c 3d 2e 34 e5 bc
       0.12686707 -0.04113167 0.049910124 -0.027978983
000240 08 c2 1f 3d 0d aa 51 bd bd 9c a9 bd 6c b9 24 3c
       0.039003402 -0.051187564 -0.082818486 0.010053974
000250 60 60 26 bc 0e 37 ca bd f9 ca d3 3d 8f de 82 bd
       -0.0101548135 -0.09873782 0.10341448 -0.06390106
000260 da 88 8d bd 41 a6 4f bd 0f 8d fb bb ae 28 99 bd
       -0.06910868 -0.05069566 -0.0076767276 -0.07478462
000270 b5 f1 8c 3d f2 36 18 be c7 77 8e bd 86 81 af bd
       0.068820395 -0.1486471 -0.069564395 -0.085696265
000280 9e 2b 98 3d 62 96 4e bd 9e 11 cc 3d 28 ff fb bd
       0.07430194 -0.050436385 0.09964298 -0.123045266
000290 98 12 00 bd d8 cb 0a 3d 52 cc d0 bd 07 5f fc 3c
       -0.031267732 0.033885807 -0.10195221 0.030807031
0002a0 80 8b 53 bc 66 7f 58 3d 69 32 7c 3d 21 0d 2d 3d
       -0.012911677 0.05285587 0.061571512 0.04224885
0002b0 fe 16 c5 bd d6 37 9b 3d 55 84 6b 3d e2 e4 84 3c
       -0.09623526 0.07579009 0.05749925 0.016222421
0002c0 2e 5c ae bd 03 58 14 be 21 d2 7a bc 3d bd b0 3d
       -0.08513676 -0.14486699 -0.015308888 0.08629844
0002d0 82 03 99 bd 23 bb 94 3d 2a e5 ad 3d c7 fb 48 3d
       -0.07471372 0.07262256 0.08490975 0.04906824
0002e0 35 79 75 3d 86 5b 5d bd c6 f3 54 bd 8b af 4b bd
       0.059930045 -0.05404236 -0.051990293 -0.049727958
0002f0 b4 4c 91 bd a3 f4 9c bd f7 33 45 3d f4 1a 5f bd
       -0.07094708 -0.07663848 0.04814526 -0.054469064
000300 f0 04 9a 3d 98 53 11 bd 9a cb 1a bd 72 48 14 bd
       0.07520473 -0.03548011 -0.037791826 -0.0362019
000310 47 e2 b1 3d 8d 9f ba bd 24 e4 c2 3d 9d 91 a7 3d
       0.08685737 -0.09112463 0.095161706 0.081820704
000320 96 bf ff ba a0 80 b5 3d 24 9d 8c bd 0b 6f bd bd
       -0.0019512053 0.08862424 -0.0686591 -0.092496954
000330 c8 8a d5 3b 46 a9 41 bc ad 7d 82 3d 50 7f ab 3b
       0.006516788 -0.011820143 0.06371627 0.0052336827
000340 da eb a3 bd 89 60 e1 bc c4 b1 7e 3c ad c8 f3 3d
       -0.080039695 -0.027511852 0.015545312 0.1190351
000350 57 89 a4 bd 87 c3 ae bd 52 b9 6b bd e2 9f db 3c
       -0.08034008 -0.08533388 -0.057549782 0.026809637
000360 6d 30 0f 3b 04 cf 68 bc 3d 9a 72 b9 19 67 89 bd
       0.0021848932 -0.014209513 -0.00023136377 -0.067091174
000370 35 ce bd bd be 4e 0d bc e5 94 c4 3c 37 23 7c bd
       -0.092678465 -0.008624731 0.02399678 -0.06155702
000380 d6 6f 73 3d 49 cd 79 3d e9 6e 88 bb b4 a8 d9 3d
       0.059432827 0.06098679 -0.004163612 0.10627881
000390 fd 26 c7 3d 99 8e 81 bd de 74 2d bd 50 36 0a bd
       0.09724233 -0.063260265 -0.04234778 -0.033743203
0003a0 dc 47 e5 bc f9 9d 9d bd 15 b7 7e bd 12 53 a5 3d
       -0.027988367 -0.076961465 -0.06218632 0.08072485
0003b0 55 52 b9 bc 31 02 dc bc 22 94 f2 3d 9d 24 48 bb
       -0.022622267 -0.026856514 0.1184466 -0.0030539401
0003c0 7e 23 78 bd 0a a2 01 3d 7f 30 25 bd 18 aa 8d bd
       -0.060580723 0.031648673 -0.040329453 -0.069172084
0003d0 5d 67 a4 bd 64 2e 56 bd 95 7b e0 3d 7b 76 f6 bb
       -0.080275275 -0.052290335 0.109610714 -0.007521448
0003e0 98 db b3 3d 70 f9 84 bd 5b d9 d2 3c a1 df 6c 3d
       0.087821186 -0.06492889 0.025738409 0.057830457
0003f0 f3 0a a9 bd 79 1d 8a 3d d3 25 9b 3d 2d 80 0a be
       -0.082540415 0.06743903 0.07575574 -0.13525458

classifiers.2.classifier.0.bias f4 [16]
000000 b5 20 53 3d d9 db 6f 3d 21 c6 89 3d fe f4 60 3d
       0.051544864 0.058559272 0.06727243 0.054921143
000010 a7 db 90 3d 1b 70 91 3d bb a4 45 3d 9f 46 06 3d
       0.07073145 0.071014605 0.048252802 0.032782193
000020 0d ae eb 3c 3e 54 d7 3c 10 25 46 3d 90 0e 86 3d
       0.028769517 0.026285287 0.04837519 0.06545746
000030 af a4 da 3b 37 db 93 3a 5b a3 c1 3d 0a 22 4f 3d
       0.006672464 0.0011280541 0.09454986 0.05056957

classifiers.2.classifier.2.weight f4 [1, 16]
000000 a1 22 1c 3e 9f 03 9c 3e a8 3c 26 be ff 12 9f be
       0.15247585 0.30471513 -0.16234076 -0.3106918
000010 d7 36 12 3e 6f 70 6e 3e 75 84 2d 3e ae e7 b7 be
       0.14278732 0.23285078 0.1694506 -0.35918945
000020 64 c4 4c be e7 dc b9 3e 57 b8 42 3e 6b 50 29 3e
       -0.19996792 0.36301348 0.19015633 0.16534583
000030 50 63 b5 be 49 6b 5e be 00 0f 96 be 92 1b ad be
       -0.35427332 -0.21720614 -0.2930832 -0.33810097

classifiers.3.classifier.0.weight f4 [16, 512]
000000 69 e2 92 3b 9d 4f bc bc ad b0 be 3c 03 fc b6 3c
       0.0044825566 -0.022987181 0.023277605 0.022336965
000010 1c d1 93 ba 1d c1 b5 bc 7d b8 84 3d 11 d2 93 3c
       -0.0011277529 -0.02218681 0.06480501 0.018044503
000020 b9 19 13 3d 80 0a da bb 14 d4 06 bd 19 f8 93 bc
       0.035913203 -0.0066540837 -0.032917097 -0.018062638
000030 30 24 30 3d dc ee da bc d6 42 d8 bc 51 b9 87 bc
       0.04300326 -0.026725225 -0.026399057 -0.016567858
000040 15 13 ca bc a5 38 14 3d c1 ed 66 3d c0 fa 58 bc
       -0.024667302 0.036186833 0.056379084 -0.013243377
000050 dd eb 2f bd b9 85 22 3c 1f 76 3c 3c b3 a8 39 3d
       -0.042949546 0.009919577 0.011502772 0.0453269
000060 36 9c ea 3c c1 c2 39 3c 2f 0a 43 3d 49 0d e0 3c
       0.02863894 0.011337937 0.047617134 0.027350085
000070 7f e9 54 3c 19 2a 2b bd 7e c1 97 3d 62 04 a1 3b
       0.012995123 -0.041788194 0.074099526 0.0049138526
000080 ae ce 85 bd 14 61 7a bc 6a de f7 bb 95 e4 6e 3c
       -0.06533562 -0.015281934 -0.0075643556 0.014580865
000090 07 85 b7 bc 01 b5 39 bd 19 b2 2c bc 2e 68 fd b9
       -0.0224023 -0.045338634 -0.010540509 -0.0004833354
0000a0 ac 4f 0e 3d 9a 38 23 3c a5 f4 09 bd 35 25 27 bd
       0.03474395 0.009962225 -0.033680577 -0.040806968
0000b0 32 e0 b0 3c 42 72 0f bd 93 4d 3f 3d ed 4f a3 bc
       0.02159128 -0.035021074 0.04670484 -0.019935573
0000c0 b7 b8 3c 3c 8c 9c 03 bd 55 8c b0 bc cf bf 0e 3d
       0.011518649 -0.032131717 -0.02155129 0.03485089
0000d0 55 ac 24 bd 8a d2 9b 3c ef 73 1b 3d 75 9a 23 3d
       -0.04020341 0.019021291 0.03795236 0.039942224
0000e0 65 dd 38 3c 68 ca 74 bd b3 65 66 bd 6e a8 55 3d
       0.011283253 -0.059763342 -0.05624933 0.05216258
0000f0 c3 ac 35 39 0b ad 8f bd 49 fc 14 3c 54 3b b9 bc
       0.00017325864 -0.07015427 0.009093353 -0.022611298
000100 d5 13 04 bb 1a 3a 34 3d a0 f7 66 3d 93 c6 1f bd
       -0.0020153422 0.044000722 0.056388497 -0.039007735
000110 8d 0c 9b bb 6b fd ea 3c 63 7a 53 3c 93 ad 4e bd
       -0.004731721 0.028685292 0.012907597 -0.050458502
000120 b8 32 08 bd d4 92 86 3d 89 d8 57 3d af 3c 2f bc
       -0.033251494 0.06570974 0.05269674 -0.01069562
000130 f6 ae 62 3d 72 5e 1f bc c8 ce 9d 3c 5f 63 84 3b
       0.055342637 -0.009727107 0.01926364 0.0040401663
000140 f5 f8 ce 3b 27 8e 8e bd 13 c2 e5 bc 17 9c 2d 3d
       0.006316299 -0.06960707 -0.028046643 0.042385187
000150 a9 ae 76 bb 6e 13 82 3c 20 5f eb 3c 4f 26 9e bc
       -0.0037640727 0.015878405 0.028731883 -0.019305376
000160 d8 ba 7c bd 96 44 a0 3d 20 89 eb bc 8d ed 27 bc
       -0.061701626 0.07825582 -0.02875191 -0.010249508
000170 64 05 2b 3d f8 f4 76 3d f7 89 40 3c 01 0a da 3c
       0.041753188 0.060292214 0.011751643 0.026616098
000180 23 eb 1f 3b 53 30 2a bd 2c 8c a3 3c 5e 80 eb 3c
       0.0024401627 -0.04154999 0.0199643 0.028747734
000190 78 a2 66 bd 13 40 38 3c b3 12 41 bd 6b 96 a1 3d
       -0.056307286 0.011245745 -0.047136974 0.07890018
0001a0 5a 2b 19 3c 02 a8 40 bd 16 19 9a bc b3 d5 5a bc
       0.009348715 -0.047035225 -0.01881079 -0.013356614
0001b0 10 ac a4 3c 16 a9 01 3d 22 c3 81 bd 5a be d6 ba
       0.020101577 0.031655394 -0.06336047 -0.0016383633
0001c0 d9 44 db bc a9 48 0e bd 90 3c be bc c6 80 26 bc
       -0.026766228 -0.034737263 -0.023222238 -0.010162538
0001d0 de d9 c3 3c 27 f0 e4 3b 72 55 bd 3c 21 b7 bf bc
       0.023907598 0.006986636 0.023112033 -0.023402752
0001e0 51 fa 7d bd 6a ec 7a 3d 97 87 1c bd a5 f5 57 3d
       -0.0620063 0.06126062 -0.038215246 0.0527245
0001f0 b6 df aa 3c f0 09 9e 3c 44 8a 0d 3b fb 39 15 bc
       0.020858627 0.019291848 0.0021597305 -0.009108062
000200 f5 b6 03 bd 1b ec 75 3c 82 91 2c 3d 89 50 77 3c
       -0.032156903 0.015009905 0.042130955 0.015094885
000210 16 82 f3 bc fe c5 d0 3c 65 d2 74 3d c2 af c5 bb
       -0.029725116 0.025485035 0.05977096 -0.006032915
000220 ad 55 9c 3c b3 ee 55 3d 99 4f 0b 3d 56 c6 3d 3c
       0.019083822 0.052229594 0.034011457 0.0115829315
000230 84 af aa bc e2 99 18 bc 9f c4 9b bc 94 8e ed 3c
       -0.020835645 -0.009314032 -0.019014655 0.02899865
000240 38 5d a4 bc 58 25 95 bd 26 87 7a 3a ff 31 82 bd
       -0.020063981 -0.072825134 0.0009556882 -0.06357192
000250 54 7f 18 3c 74 7f 05 bd 77 d0 f5 3c 8b 1f 85 bd
       0.009307701 -0.032592252 0.03000663 -0.06500157
000260 06 d8 17 ba ba d1 6d 3d 32 32 46 bc 1f f4 bf 3b
       -0.0005792383 0.05806134 -0.012096928 0.005857959
000270 7a ad 3f 3c 16 ea 86 3d 60 d1 0b bd 4f c7 6d 3d
       0.011699075 0.06587617 -0.034135222 0.058051404
000280 0f 94 98 bc 00 a6 c3 3c 12 f1 28 3d 9c bd 89 3b
       -0.018625287 0.023882866 0.041245528 0.0042035114
000290 73 7f 05 bb 05 35 99 3d fd 7c b8 3c 17 71 43 3d
       -0.0020370155 0.07480816 0.022520537 0.047715273
0002a0 eb bf fb 3c ac e1 41 bc 4a 22 60 3d ee c2 87 bc
       0.030731162 -0.0118335895 0.0547202 -0.016572442
0002b0 b3 6d 28 bd 1b 6a 67 bc 21 69 79 3b 06 bd 91 3c
       -0.041120242 -0.014124419 0.0038057046 0.017790329
0002c0 4a b3 ee bc 8f b2 f2 bb de f4 8f 3c a2 7f 42 3d
       -0.029138226 -0.0074065397 0.017572816 0.047485
0002d0 3a 9d c5 ba 78 2f f0 bb ec af 06 3c 13 f1 e9 bc
       -0.0015076764 -0.0073298775 0.008220654 -0.028557336
0002e0 c0 f7 07 bc b9 11 e6 bb ab 7b 0d 3d ff e8 e4 3c
       -0.008298814 -0.0070211557 0.034541767 0.027943132
0002f0 1a c7 0c bd 7e dd 47 bd 93 1d a9 bd 05 ba 3f bc
       -0.034369566 -0.048795216 -0.08257594 -0.011702065
000300 3b 1b 91 3c dd 0f 0e 3d 1e c1 0b bd 6f 13 01 bd
       0.01771318 0.034683097 -0.034119718 -0.031512674
000310 b5 19 b6 bc 03 58 ea bc 78 45 26 3d 04 51 ae 39
       -0.022229055 -0.02860642 0.040593594 0.00033248228
000320 9c e2 69 bd a6 47 79 bd ae 70 6b 3c 3c f1 b4 bc
       -0.057100877 -0.060859345 0.014370127 -0.022087686
000330 11 88 3e 3d 69 33 12 bd 8f 58 0f bd 85 b1 c9 3c
       0.04651648 -0.03569356 -0.034996565 0.02462078
000340 98 6d 73 bd 18 6f 32 bd 50 3a 67 3d 2b ab 45 bc
       -0.05943069 -0.04356298 0.056452096 -0.012064735
000350 84 48 8a bd 2a 27 61 bc ef 27 86 3d 9d db 87 3c
       -0.067521125 -0.013742248 0.065505855 0.016584212
000360 6b 2e e9 3b dd a2 a9 bc e1 5f 41 3b a5 14 5c 3c
       0.007116129 -0.020707542 0.0029506611 0.013432656
000370 41 2d 2b bd 9f 09 89 bc 05 d3 59 bc e8 b9 2d bd
       -0.041791204 -0.01672822 -0.01329494 -0.042413622
000380 42 c5 f6 3c 6b 8b 05 bd b7 0a fd bc 8b 3a f7 bc
       0.030123357 -0.032603662 -0.030888898 -0.030179283
000390 fd 47 14 bd 12 5d c6 3c 70 2b 6e 3d 99 86 9b bc
       -0.036201466 0.024214301 0.058146894 -0.01898508
0003a0 39 0f 20 3d 05 ba 42 3b 5c 41 06 3d 2b ae 32 3d
       0.039077017 0.0029712927 0.032777175 0.04362313
0003b0 b0 16 d8 bb 49 93 18 3d ed c8 f4 bc bb d2 e8 3c
       -0.0065945014 0.037249837 -0.029880965 0.028420797
0003c0 07 c2 fd 3c 45 9c e5 3c f0 be 3a bc 61 12 fd 3b
       0.030976309 0.028028617 -0.011398062 0.007723138
0003d0 04 19 36 bd 62 05 64 3d e6 78 b3 3c 0b 20 13 3d
       -0.04445745 0.055669196 0.021908235 0.03591923
0003e0 86 92 1f bd 02 24 93 bc e3 70 83 bc c8 c1 22 3a
       -0.038958095 -0.017961506 -0.01604504 0.0006208685
0003f0 77 59 5d bd ad 9a 8f bc 50 e5 e3 bb 59 51 89 3c
       -0.0540404 -0.01752981 -0.0069548264 0.016762422

classifiers.3.classifier.0.bias f4 [16]
000000 ec d6 30 3d 24 cc ba bc ff 3d d4 bc fa 90 84 bb
       0.043173715 -0.02280242 -0.025908468 -0.004045603
000010 54 c1 00 bd 32 d4 38 3d d9 91 47 3d 6f 22 a6 3b
       -0.031434372 0.04512424 0.048723076 0.005070023
000020 b5 b3 0b 3d 41 84 bf bc 00 f6 20 bc 56 51 7c 3d
       0.03410693 -0.023378493 -0.009824276 0.061601005
000030 72 7c 8e bc 2a ee 1e bc 36 3c 5d 3d 1d 2b 18 bc
       -0.017393325 -0.009700337 0.0540125 -0.009287623

classifiers.3.classifier.2.weight f4 [1, 16]
000000 49 de 70 3e d4 b8 81 be 55 61 02 3e 23 99 e1 bd
       0.23522295 -0.25336325 0.12732442 -0.11015537
000010 cb 78 67 be 5c b4 50 be 43 04 8f 3e 33 88 87 3e
       -0.22604673 -0.20381302 0.2793294 0.264711
000020 f5 62 2e 3e ea 8e 30 be 06 db 5a be f1 fd b5 bd
       0.17029937 -0.17242017 -0.21372613 -0.08886326
000030 1e 6f 09 be ec b2 38 be 31 06 90 be b4 48 32 3e
       -0.13421294 -0.18037003 -0.28129724 0.17410547
