model_cat/model.pth (torch_old, 34553 bytes, 4 tensors)

classifiers.0.classifier.0.weight f4 [16, 512]
000000 ee c5 8c bd ad 06 2d bd ec 27 52 bd 45 65 09 bd
       -0.068736896 -0.042242695 -0.051307604 -0.033543844
000010 d9 f6 32 3c b6 38 48 3d db 79 a3 bd c9 71 3a 3c
       0.010923111 0.04888221 -0.079822265 0.011379668
000020 f9 42 73 3d 88 79 1a 3d 58 1f 12 3c 69 4f 2a 3d
       0.059390042 0.037713557 0.008918606 0.041579638
000030 97 72 2d bc 33 72 03 bd 18 6f c6 3d 40 10 57 3b
       -0.010586402 -0.03209133 0.09689158 0.0032816082
000040 cc 93 c8 b9 94 0b 0c 3d 48 d0 82 bd 58 03 0f 3c
       -0.0003825709 0.03419073 -0.06387383 0.008728825
000050 c7 9e df bd 35 da bf 3c 0f 7d 3c bb 98 f6 b8 bd
       -0.10918956 0.023419479 -0.0028761064 -0.09031409
000060 43 5b 16 3b ac 68 17 3c 54 7b c5 bd d1 b2 8a 3d
       0.002294258 0.009241264 -0.096426636 0.06772388
000070 af 46 81 bc 22 17 9e bd bd d3 9e bc 27 7e ba 3b
       -0.015780775 -0.07719256 -0.019388074 0.005691308
000080 49 ef 7d bd c7 04 57 bd 5b b8 34 bc ff 3c ab 3c
       -0.06199578 -0.05249479 -0.011030282 0.020903109
000090 4b c5 23 bc b6 67 2f bd a7 89 14 3c 94 eb 1f bd
       -0.009995769 -0.042823516 0.009066022 -0.039043024
0000a0 f4 60 20 3d f5 45 9b bd 20 8d e1 bc 0a e8 23 bc
       0.03915496 -0.075817026 -0.027533114 -0.010004053
0000b0 e1 36 04 3d e2 f1 7b bd 44 b1 ba 3a 0c 45 79 bd
       0.0322789 -0.061509974 0.0014243503 -0.060856864
0000c0 5f 2c a0 bd e5 6f 0a bd 56 a0 a9 bd ee e2 0a bd
       -0.07820963 -0.033798117 -0.08282535 -0.033907823
0000d0 ed 52 7a 3d 46 08 a9 bd 66 b2 4d bc ab 82 bb bd
       0.06111424 -0.08253531 -0.0125547405 -0.09155782
0000e0 e2 ca 45 3d 8c 9a 53 3d 9a 5d cc 3c 4d 8e 47 3d
       0.048289187 0.05166106 0.024946976 0.048719693
0000f0 e4 d8 d3 bc c0 73 e8 3c ef e6 1d 3d d2 9b af bd
       -0.025860257 0.028375506 0.038550314 -0.08574642
000100 78 5f a6 bc 92 1f a4 bc 4f a1 3d bd 59 75 b3 3d
       -0.020309195 -0.020034585 -0.046296414 0.08762617
000110 c0 8b 39 3d ab 39 44 bd 3f b9 9b bb 3e 66 84 3d
       0.04529929 -0.04790656 -0.0047523077 0.06464814
000120 4a 02 95 3c ca 0d 83 bc fe a5 32 bc 7e 4e de bc
       0.018189568 -0.015997786 -0.010903833 -0.027137037
000130 11 e5 eb 3c 72 e4 86 bd cb 3e 20 bd b9 df bc ba
       0.02879575 -0.06586541 -0.039122384 -0.0014409936
000140 1f 6a 68 bd a6 49 83 bd 73 8f 3d b9 ee 87 84 bd
       -0.05674183 -0.06410532 -0.00018077884 -0.06471239
000150 09 b2 b9 3d 05 21 a9 bc ad 99 a6 bd e9 7f 47 bd
       0.09067161 -0.020645628 -0.0813478 -0.04870597
000160 53 c0 37 3b 76 2c be 3c 26 34 9d bd e4 e4 03 bd
       0.0028038218 0.02321456 -0.07675962 -0.03220071
000170 42 1a 7d 3b 6f 02 83 bd 4d 02 9a bc 62 91 c6 3d
       0.0038620387 -0.063969485 -0.018799925 0.09695698
000180 ee 23 61 3d d3 40 8e 3d 95 8e 99 bc f3 66 e4 bc
       0.054965906 0.06945958 -0.018744746 -0.027881121
000190 85 81 36 bc 53 ed a4 3d c6 20 20 3b aa f6 28 bd
       -0.011139278 0.080530785 0.0024433597 -0.041250862
0001a0 31 0e aa 3d 96 bf 6e ba 5e 62 92 3d 7c 7d 01 3d
       0.08303488 -0.0009107528 0.07147668 0.03161381
0001b0 a9 b3 03 3c 82 d7 90 3d 7f e5 ae 3b 00 72 ef 3c
       0.00803844 0.07072355 0.0053374167 0.029229164
0001c0 eb 4f 8c 3d 36 aa 4f bd b2 c7 4b bc 46 66 6e bc
       0.06851181 -0.050699435 -0.012437748 -0.014550751
0001d0 fb e0 cd bc 86 38 8c 3d 09 73 05 bd 6c 60 b3 3c
       -0.025131693 0.068467185 -0.03258041 0.021896563
0001e0 07 80 50 3b f5 66 4b 3d 0d 51 95 bc 50 68 a1 3c
       0.0031814591 0.049658734 -0.018227125 0.01970306
0001f0 06 17 ca 3d c4 6b c0 bc dd 6b 81 bd f9 47 b9 bd
       0.098676726 -0.023488887 -0.063194014 -0.09046931
000200 ea 27 ab bc ed b5 49 bd b1 48 6f 3d cd 43 86 3a
       -0.020893056 -0.049245764 0.058418933 0.0010243595
000210 bf 98 3a 3c c9 cf f1 ba b5 b1 7d bd 17 d9 2f bb
       0.011388957 -0.0018448766 -0.061937053 -0.0026832276
000220 e8 c3 16 bc dc fc 84 3d 24 00 a4 3c 8e 1e a0 b9
       -0.009201981 0.064935416 0.020019598 -0.00030540343
000230 cb bd ac bd 1e ec b9 bb 5c 81 a0 bb 54 ca df 3c
       -0.08434638 -0.0056738993 -0.0048982333 0.027318157
000240 9d 40 5b bd 7c 40 51 bc 99 e7 36 bd 6f f6 4a bb
       -0.053528417 -0.012771722 -0.044654462 -0.003096964
000250 d8 ae 07 3d f5 f3 4b 3c 6f da 1e bc 0c ed 4f bd
       0.03312573 0.012448301 -0.009695633 -0.050763175
000260 3b 48 25 3c d7 cf b2 bd cf d3 8e bd 8a 3d 87 3d
       0.010088022 -0.087310486 -0.06973993 0.066035345
000270 24 97 cb bc ae f3 40 bd b7 38 65 bd a1 b9 12 3d
       -0.024852343 -0.04710739 -0.05596229 0.03582156
000280 47 5f db 3c d3 1b 5d 3a d5 26 9a bd c4 51 1a 3d
       0.02677883 0.0008434627 -0.07526938 0.037675634
000290 9d 4b 83 bd f3 c3 af bb ae ae a0 3c fc cc 69 3d
       -0.064109065 -0.005363935 0.019614544 0.057080254
0002a0 aa ab 1b bd 85 1f c3 3c d2 f9 4e bd 5e 3a c5 3c
       -0.03800551 0.02381874 -0.050531216 0.024075683
0002b0 43 3b b1 3b 35 75 64 bd f4 64 82 3a 3d 48 6d 3c
       0.005408676 -0.05577584 0.0009948299 0.014482555
0002c0 a3 21 fb 3c 4b c8 31 3d cb 24 21 bd 86 df 22 bd
       0.030655688 0.043403905 -0.03934173 -0.03976395
0002d0 b7 f0 cf 3a 04 1a 96 3c d6 aa 89 bd 48 2c 1b bc
       0.0015864585 0.018322952 -0.067220375 -0.009471007
0002e0 30 f8 a3 3d f4 e1 94 3d e5 7e 5e 3d 33 55 13 bb
       0.080063224 0.0726966 0.054320235 -0.0022481203
0002f0 9a 1e 9b bc 88 30 90 bd 7c e9 94 3d ac 6d d7 bc
       -0.01893549 -0.070405066 0.07271096 -0.026297413
000300 3b 57 23 3d 27 31 1b bd 40 be 89 3d d2 df e1 3c
       0.03987811 -0.037888672 0.067257404 0.027572546
000310 b4 79 56 3a 6b 59 11 bd 45 c7 1c bc af f1 cb 3d
       0.00081815873 -0.035485666 -0.009568994 0.09958207
000320 b1 e6 10 3d 13 5c 87 bd ad f2 1b 3b 74 12 9e 3c
       0.035376254 -0.06609359 0.002379577 0.019295909
000330 7d 9d 98 bd 7e 99 f6 bc 0e 7f e7 3a 85 87 e7 3d
       -0.074519135 -0.030102488 0.0017661767 0.11305145
000340 29 bb 41 bd 52 6b 39 bb 02 2d 7a 3b 6a f0 31 bd
       -0.04729763 -0.0028292728 0.00381738 -0.043442167
000350 1c 19 7a bd 18 b8 36 3d 6b 4c 9f bc 71 1c 0a 3d
       -0.061059102 0.04460916 -0.019445619 0.03371853
000360 26 7c 39 bb 85 59 62 bd a4 06 8f bd 05 67 70 bc
       -0.0028302758 -0.055261154 -0.069836885 -0.014672999
000370 14 da fc bb 15 93 c4 bc f4 60 02 bd e0 cf 4d 3d
       -0.0077164266 -0.023995915 -0.031830743 0.050247073
000380 a3 45 34 bd a5 d0 ba 3b 60 7e bf bd f4 f7 8c bc
       -0.044011723 0.005701142 -0.09350276 -0.017208077
000390 75 99 56 3c ba 3b e0 3c 71 cc c2 bc a2 8c a8 3c
       0.01309811 0.02737223 -0.023779126 0.020574871
0003a0 39 93 28 bd 08 35 a6 3d 36 7c 0d 3d 15 cf 71 3d
       -0.041156027 0.08115584 0.034542285 0.05903538
0003b0 eb 70 90 3b fe 71 8e bc e9 77 a5 bd 51 93 84 3d
       0.004407992 -0.01738834 -0.08079512 0.06473411
0003c0 28 70 71 3b dd ab f2 3c 0d 05 66 bb 82 38 47 3d
       0.0036840532 0.029622966 -0.0035098225 0.048637874
0003d0 fe e6 8b bb 75 e4 1c bd db 5c 3b 3c 84 05 12 3d
       -0.00426948 -0.03830381 0.011435713 0.03564979
0003e0 7c af 10 3d c7 e2 36 3d cb f7 0e 3d 71 9f 80 bd
       0.035323605 0.044649865 0.034904283 -0.06280411
0003f0 df c2 b8 ba 7f 1b 1e 3d 08 c5 5c bd fe db 61 3d
       -0.0014096162 0.03860044 -0.05389884 0.05514144

classifiers.0.classifier.0.bias f4 [16]
000000 21 40 12 3d 95 33 95 3d 3c 57 cf 3c 0d 93 58 3d
       0.03570569 0.07285229 0.025310151 0.052874614
000010 92 bc 32 3d 96 29 68 3a f4 98 92 3d c6 a0 a9 3c
       0.043636866 0.00088562944 0.0715808 0.020706546
000020 85 13 53 3d 9b 0c c6 3c eb eb f8 3c 48 7c 58 3d
       0.051532287 0.024175933 0.030385932 0.0528529
000030 d3 d1 39 3d 72 29 ff 3c 62 f9 3e 3b 8e ff 54 3d
       0.04536612 0.031147692 0.0029140343 0.05200153

classifiers.0.classifier.2.weight f4 [8, 16]
000000 85 b6 81 3e b2 0b ba bd ed 6b 3e 3e 7d 97 95 3e
       0.25334564 -0.09084262 0.18595858 0.2921714
000010 d7 35 a8 be 1f 59 dd 3d a3 ac 25 be 42 be bd 3e
       -0.32853577 0.10808014 -0.16179137 0.37059218
000020 cf 45 86 3e 83 f3 54 3e 7d d3 5f 3e ad d0 91 3e
       0.26225135 0.20796017 0.2185802 0.2847952
000030 14 c3 14 be 08 ab b3 3e f1 ce b5 bd 6d e6 af be
       -0.14527541 0.35091424 -0.088773616 -0.34355488
000040 86 48 39 be 03 e7 70 3e b8 57 e7 bd cc d6 2a be
       -0.18094072 0.23525624 -0.11296028 -0.16683501
000050 4d 52 72 3e e5 88 8a be 93 87 80 be 48 dd cd be
       0.23664208 -0.27057567 -0.25103435 -0.40207887
000060 5a 15 28 be f4 8d 31 3e 15 9a 89 3e 13 79 93 3e
       -0.16414395 0.17339307 0.26875368 0.2880331
000070 4e b5 9a 3e 42 e4 8b be a6 84 28 be 1e 7f c3 3d
       0.3021645 -0.27322584 -0.16456851 0.0954573
000080 8c 7f 19 bd d1 3c 8d 3e 08 ad a5 be 34 91 9f 3e
       -0.037475154 0.27585462 -0.32358575 0.3116547
000090 68 ee 93 3e c6 bb 11 bc 05 f0 43 3e 8e c9 f4 bd
       0.28892827 -0.008894866 0.19134529 -0.11952506
0000a0 8c df 4d 3e b9 b2 90 be fc e2 a0 be bb 79 01 bd
       0.20104808 -0.28261355 -0.31423175 -0.03161023
0000b0 6c c9 2b 3e 67 9a 5d 3d a0 46 25 3e 84 d4 9f 3e
       0.16776055 0.054102328 0.16140223 0.31216824
0000c0 44 2f c2 bd 70 19 f6 bd b5 c0 40 3e 47 02 f9 bc
       -0.094816715 -0.120165706 0.18823512 -0.030396594
0000d0 d0 af 73 bd 49 35 53 3c 1c 40 af bd ac b3 93 bc
       -0.05949384 0.012891122 -0.0855715 -0.01803001
0000e0 94 96 b4 bd bb 88 04 3e 89 ac 71 be de 0c 5d be
       -0.08817783 0.12942784 -0.23600973 -0.2158694
0000f0 87 86 1e be d4 1a 0c be 63 9b 5a be 49 39 0b 3d
       -0.15481006 -0.13682109 -0.21348338 0.03399018
000100 ce f7 2d be de 79 ea bd 27 67 79 be 3a d6 99 3d
       -0.16989061 -0.114490256 -0.24355756 0.075115636
000110 17 fd d6 bd 1c bd 3c bd 6b 4b 91 3d 0c a5 40 be
       -0.10497492 -0.046078786 0.07094463 -0.1881296
000120 4f 86 5b bd 73 8f a1 be 5c 0f 58 3d 7d 9a f4 3d
       -0.053594884 -0.31554756 0.052749023 0.11943529
000130 39 23 61 3d f9 a3 de 3d e4 27 92 3c a7 dc 19 3d
       0.05496523 0.10871119 0.017841287 0.037563946
000140 e6 a8 33 3d 97 d6 31 bd c0 bd 82 bb d4 25 9e 3c
       0.043862246 -0.04341754 -0.003989905 0.019305147
000150 dc e9 21 be 68 5e 01 be fe b8 0b be f7 4b f7 3c
       -0.15811867 -0.1263367 -0.13644788 0.03018759
000160 80 8b 4c be ff 0c 28 bd 19 41 89 3d be 9f 23 3d
       -0.1997509 -0.04102802 0.067018695 0.039947264
000170 01 01 8f be 07 60 f2 bd 63 a3 4c be 4c 87 96 be
       -0.27930453 -0.11834722 -0.19984202 -0.29400098
000180 51 90 19 bd c3 a5 cd 3d 08 d2 c7 3d 1c 18 8d be
       -0.037491146 0.10041382 0.09756857 -0.27557456
000190 52 e1 a6 bd 91 eb 4c be 14 38 23 3e b1 cd 0e 3d
       -0.08148445 -0.20011736 0.15939361 0.03486413
0001a0 0b db 03 3d c8 03 58 be f4 bc 02 3d e6 d4 83 be
       0.032191318 -0.21095192 0.03191848 -0.25748366
0001b0 fd e8 11 bd 1e 48 93 be 57 54 4a be c1 5c 1f 3e
       -0.035622586 -0.2876596 -0.19758736 0.15562727
0001c0 4e 44 8a be d5 f8 0d bd 8c 81 2b be d5 f4 39 bc
       -0.27005237 -0.034661133 -0.16748637 -0.011349876
0001d0 7b 34 f6 3d 58 29 4a be d0 e4 b0 bd 65 64 34 be
       0.120217286 -0.19742334 -0.086373925 -0.17616422
0001e0 12 ba 4c be 25 0c 94 bd 9f 57 93 be 96 96 c5 3d
       -0.19992855 -0.07228879 -0.28777787 0.096478626
0001f0 c2 f9 71 be f7 8d 43 3e 85 75 f2 3c 66 95 12 3e
       -0.23630431 0.19097124 0.029597053 0.14314803

classifiers.0.classifier.2.bias f4 [8]
000000 89 74 d1 bd 21 0e d4 bd 5e 96 ec bd 01 56 3d be
       -0.102273054 -0.103542574 -0.11552118 -0.18489839
000010 12 9a 17 3e 75 df 32 3e 2f ca 53 be 25 27 1c 3e
       0.14804867 0.17468055 -0.20682596 0.15249307
